…
100%|██████████| 170M/170M [01:03<00:00, 2.67MB/s]
2025-10-03 00:11:22,027 - INFO - Model v0: OneCycleLR max_lr=0.01 pct_start=0.2 div_factor=10 final_div_factor=100 epochs=35
2025-10-03 00:11:22,028 - INFO - Dataloader arguments: {'batch_size_train': 32, 'batch_size_test': 1000, 'shuffle_train': True, 'shuffle_test': False, 'num_workers': 2, 'pin_memory': True}
2025-10-03 00:11:23,006 - INFO - 
----------------------------------------------------------------
        Layer (type)               Output Shape         Param #
================================================================
            Conv2d-1            [-1, 8, 32, 32]             216
       BatchNorm2d-2            [-1, 8, 32, 32]              16
              ReLU-3            [-1, 8, 32, 32]               0
           Dropout-4            [-1, 8, 32, 32]               0
            Conv2d-5           [-1, 16, 32, 32]           1,152
       BatchNorm2d-6           [-1, 16, 32, 32]              32
              ReLU-7           [-1, 16, 32, 32]               0
           Dropout-8           [-1, 16, 32, 32]               0
            Conv2d-9           [-1, 32, 32, 32]           4,608
      BatchNorm2d-10           [-1, 32, 32, 32]              64
             ReLU-11           [-1, 32, 32, 32]               0
          Dropout-12           [-1, 32, 32, 32]               0
           Conv2d-13           [-1, 32, 30, 30]           9,216
      BatchNorm2d-14           [-1, 32, 30, 30]              64
             ReLU-15           [-1, 32, 30, 30]               0
          Dropout-16           [-1, 32, 30, 30]               0
           Conv2d-17           [-1, 32, 30, 30]           9,216
      BatchNorm2d-18           [-1, 32, 30, 30]              64
             ReLU-19           [-1, 32, 30, 30]               0
          Dropout-20           [-1, 32, 30, 30]               0
           Conv2d-21           [-1, 32, 28, 28]           9,216
      BatchNorm2d-22           [-1, 32, 28, 28]              64
             ReLU-23           [-1, 32, 28, 28]               0
          Dropout-24           [-1, 32, 28, 28]               0
           Conv2d-25           [-1, 32, 14, 14]           9,248
      BatchNorm2d-26           [-1, 32, 14, 14]              64
             ReLU-27           [-1, 32, 14, 14]               0
           Conv2d-28           [-1, 32, 14, 14]             288
      BatchNorm2d-29           [-1, 32, 14, 14]              64
           Conv2d-30           [-1, 64, 14, 14]           2,048
      BatchNorm2d-31           [-1, 64, 14, 14]             128
DepthwiseSeparableConv-32           [-1, 64, 14, 14]               0
           Conv2d-33           [-1, 64, 14, 14]          36,864
      BatchNorm2d-34           [-1, 64, 14, 14]             128
             ReLU-35           [-1, 64, 14, 14]               0
          Dropout-36           [-1, 64, 14, 14]               0
           Conv2d-37          [-1, 128, 14, 14]          73,728
AdaptiveAvgPool2d-38            [-1, 128, 1, 1]               0
          Flatten-39                  [-1, 128]               0
           Linear-40                   [-1, 10]           1,290
================================================================
Total params: 157,778
Trainable params: 157,778
Non-trainable params: 0
----------------------------------------------------------------
Input size (MB): 0.01
Forward/backward pass size (MB): 5.38
Params size (MB): 0.60
Estimated Total Size (MB): 5.99
----------------------------------------------------------------
2025-10-03 00:11:23,006 - INFO - Training model for 35 epochs
…
