…
2025-10-02 22:56:41,507 - INFO - Model v0 dataloader args: {'batch_size_train': 128, 'batch_size_test': 1000, 'shuffle_train': True, 'shuffle_test': False}
2025-10-02 22:56:43,644 - INFO - Model v0: OneCycleLR max_lr=0.01 pct_start=0.2 div_factor=10 final_div_factor=100 epochs=15
2025-10-02 22:56:43,644 - INFO - Dataloader arguments: {'batch_size_train': 128, 'batch_size_test': 1000, 'shuffle_train': True, 'shuffle_test': False}
2025-10-02 22:56:43,779 - INFO - 
----------------------------------------------------------------
        Layer (type)               Output Shape         Param #
================================================================
            Conv2d-1            [-1, 8, 32, 32]             216
       BatchNorm2d-2            [-1, 8, 32, 32]              16
              ReLU-3            [-1, 8, 32, 32]               0
            Conv2d-4           [-1, 16, 32, 32]           1,152
       BatchNorm2d-5           [-1, 16, 32, 32]              32
              ReLU-6           [-1, 16, 32, 32]               0
            Conv2d-7           [-1, 32, 32, 32]           4,608
       BatchNorm2d-8           [-1, 32, 32, 32]              64
              ReLU-9           [-1, 32, 32, 32]               0
           Conv2d-10           [-1, 32, 32, 32]           9,216
      BatchNorm2d-11           [-1, 32, 32, 32]              64
             ReLU-12           [-1, 32, 32, 32]               0
           Conv2d-13           [-1, 32, 32, 32]           9,216
      BatchNorm2d-14           [-1, 32, 32, 32]              64
             ReLU-15           [-1, 32, 32, 32]               0
           Conv2d-16           [-1, 32, 32, 32]           9,216
      BatchNorm2d-17           [-1, 32, 32, 32]              64
             ReLU-18           [-1, 32, 32, 32]               0
           Conv2d-19           [-1, 32, 16, 16]             288
      BatchNorm2d-20           [-1, 32, 16, 16]              64
           Conv2d-21           [-1, 64, 16, 16]           2,048
      BatchNorm2d-22           [-1, 64, 16, 16]             128
DepthwiseSeparableConv-23           [-1, 64, 16, 16]               0
           Conv2d-24           [-1, 64, 16, 16]          36,864
      BatchNorm2d-25           [-1, 64, 16, 16]             128
             ReLU-26           [-1, 64, 16, 16]               0
           Conv2d-27            [-1, 128, 8, 8]          73,728
      BatchNorm2d-28            [-1, 128, 8, 8]             256
             ReLU-29            [-1, 128, 8, 8]               0
AdaptiveAvgPool2d-30            [-1, 128, 1, 1]               0
          Flatten-31                  [-1, 128]               0
           Linear-32                   [-1, 10]           1,290
================================================================
Total params: 148,722
Trainable params: 148,722
Non-trainable params: 0
----------------------------------------------------------------
Input size (MB): 0.01
Forward/backward pass size (MB): 4.63
Params size (MB): 0.57
Estimated Total Size (MB): 5.21
----------------------------------------------------------------
2025-10-02 22:56:43,780 - INFO - --- Model Architecture Checks ---
…
